tests/resources/model.pt (torch, 127598 bytes, 7 tensors)

composition_weights f8 [1, 7]
000000 00 00 00 00 00 00 00 00 00 00 00 00 00 00 00 00
       0.0 0.0
000010 00 00 00 00 00 00 00 00 00 00 00 00 00 00 00 00
       0.0 0.0
000020 00 00 00 00 00 00 00 00 00 00 00 00 00 00 00 00
       0.0 0.0
000030 e6 0b 5a c8 d9 69 63 c0
       -155.30783479296878

bpnn.layers.6.0.weight f8 [32, 448]
000000 dc 0e aa c3 01 ec 92 bf f1 a7 f8 11 49 b3 b0 3f
       -0.018478419845009295 0.06523567856552838
000010 b3 c8 0c 25 20 b6 99 3f 3c 59 7a ae c1 31 8b 3f
       0.025108816396092148 0.01327849687303894
000020 57 44 94 a6 5f 1c a8 3f c6 5e 86 c6 0a 52 92 3f
       0.04709147365986926 0.017891090743062298
000030 c0 4a 76 c6 2c 28 92 3f f3 17 32 55 70 a7 9f 3f
       0.017731380093730875 0.03091216583245422
000040 a0 1c de 3f 79 93 92 3f a3 15 9c 9f 3d ca a5 bf
       0.018140692256136348 -0.04255859921799334
000050 2b e8 6c 85 52 dc 76 bf 5c e5 6e d2 ae ed 95 bf
       -0.005581209515009215 -0.021414500802824463
000060 2f 1f 9e 40 15 c6 81 3f de 20 b0 7a b5 fc 78 bf
       0.008678594622110928 -0.006100376990623794
000070 94 e3 21 5b 8b af 97 bf f7 6b e6 a0 04 59 73 bf
       -0.023130586087492924 -0.004723566131725746
000080 6d 0d 6b 42 dd ff 9b 3f 2d 85 96 b3 8a 62 83 3f
       0.027343232325404743 0.00946529732283582
000090 b2 41 a4 6e 09 8e a3 3f 5f c7 b7 c3 ec 08 a6 3f
       0.038193030124719654 0.04303684128889417
0000a0 4e a7 e3 bf d8 80 63 bf 9a ae cb 4d 4d cf 86 3f
       -0.002380774821280441 0.011137584625849063
0000b0 ae f7 52 95 e4 2a 91 3f 5c db 65 e5 5c 5a 78 bf
       0.01676518594171455 -0.005945551753362501
0000c0 3f 05 c4 fc 15 cb 94 3f b8 6e b6 06 ea f1 99 bf
       0.020305961182207396 -0.025336891803461298
0000d0 81 51 cb ff 1e 19 93 3f 3b bd cb 6a 44 8b a6 3f
       0.01865051685565922 0.04403127483044008
0000e0 aa f6 df 3b e0 85 93 3f 12 e5 fb a7 49 d3 7b bf
       0.019065383581610952 -0.006793296546441912
0000f0 8d 80 7b 32 a4 75 97 bf 28 3f 68 97 f2 9d 6d 3f
       -0.0229097038089781 0.003615354358096474
000100 2b 70 0b 0b cd 8b 95 bf a5 86 cf 5b 52 3c 9a bf
       -0.02104111080085162 -0.025620734075238478
000110 01 e2 60 2a d8 08 97 3f 64 20 31 30 fa e1 ae 3f
       0.022494676195693234 0.06031781996040378
000120 14 75 55 6b 01 dc 92 bf 20 d7 45 fb a7 b8 a5 bf
       -0.01841737954724916 -0.04242443983359423
000130 a6 36 1b bd 6a a7 94 bf 80 a0 d1 ee 2f 65 a7 bf
       -0.020169894973881462 -0.04569387235898237
000140 c7 ca 12 e6 9b 39 a8 3f 3a 93 95 18 54 86 a1 bf
       0.04731452163232102 -0.03422797012425467
000150 dc b5 1b 60 81 77 ad bf 74 83 af 99 fa 0b 7c bf
       -0.057552378637278884 -0.006847361476474901
000160 ed b6 a3 18 84 67 85 3f 74 ff f2 d6 42 0d 66 3f
       0.010451347352922602 0.002691870256597834
000170 ca af 1d 35 31 6c a1 bf bc 67 fe fe e2 d2 a6 bf
       -0.03402856610668399 -0.04457768786160396
000180 08 c9 77 15 13 cd 95 3f 20 14 44 e1 01 c4 7e bf
       0.021290109811112706 -0.007511145919356671
000190 c7 7c 13 ad de f5 92 3f 78 af 95 5c c2 b3 a8 3f
       0.01851604396221942 0.04824645404991562
0001a0 64 4c b0 60 f9 95 78 3f 89 f8 c9 c0 8d 0d 9a 3f
       0.006002401477434114 0.025442328349975205
0001b0 f5 61 d1 3f aa 75 9c 3f cc f6 0e fa c8 4b a6 bf
       0.027792606492171818 -0.04354694416495661
0001c0 ed 37 c0 52 90 d0 9a 3f a4 64 25 f6 d7 e5 a7 bf
       0.026186232615195527 -0.0466754425021432
0001d0 74 e6 c8 92 89 81 5b bf 9c 26 85 62 b7 13 64 bf
       -0.0016788333406466934 -0.0024508077368963887
0001e0 60 dd b4 aa 1d a4 a6 bf 6d a7 73 c0 56 19 a9 bf
       -0.04422085484332672 -0.049021445267341736
0001f0 86 51 a7 d8 53 52 75 3f 8d df a2 d0 47 c2 93 3f
       0.005205466770764727 0.01929580889620257
000200 c4 e5 38 83 1a fb ae bf b4 0e 3a 6e 71 23 ae bf
       -0.06050951816400699 -0.058864159303110425
000210 7a 97 8f f4 96 29 90 bf ea e6 55 ea 9b 72 b0 3f
       -0.01578365199738794 0.06424879523356322
000220 49 5e 22 41 5c 43 94 3f 9a 75 3a 45 b3 a8 91 3f
       0.019788209414939115 0.017245102978099426
000230 ea d3 1d 15 eb b6 95 3f e7 a9 02 2d ec fb ae 3f
       0.021205590404367237 0.06051576661532803
000240 de 0f 40 ae 1b 9a 87 3f 2b 4c 00 bf f3 53 86 3f
       0.011524406676478745 0.010902313486473933
000250 45 1e 5b ff b2 a7 9f bf 2f f2 8d ba 37 1a 6a bf
       -0.030913159213723302 -0.003186329693958954
000260 dd 5b ae 16 52 27 a9 bf 4b f0 d9 ae 9e 1d 98 3f
       -0.04912811781758084 0.023550490781858262
000270 8b 8b 26 e7 9b 20 a2 bf bf 73 58 8a 9c cf 99 bf
       -0.03540503689443771 -0.025206037467899508
000280 6e c9 61 7f fd ee 98 3f f1 6e 7a db 52 7b ab bf
       0.02434917535760788 -0.05367525986841127
000290 18 13 d7 d4 77 8d aa bf c2 c0 19 1a 02 cd 93 3f
       -0.05186056588312321 0.01933673176103024
0002a0 31 f9 25 77 c0 01 9f bf c0 dd d0 36 ba f7 aa 3f
       -0.030280120155560645 0.052671260062591596
0002b0 e3 40 c8 98 3b 7f aa bf fb 9b bb 0e 0d 54 a3 3f
       -0.051751959228683274 0.03775063328594538
0002c0 d8 47 c1 d8 e7 af ac 3f 44 9d 2c 3f bf ea 73 bf
       0.05602955361304368 -0.0048625441147927585
0002d0 cf 0c 47 7e 54 d8 7d 3f 79 65 99 dc d2 0f 91 3f
       0.007286386539308866 0.016661925043398782
0002e0 8b 33 75 e6 d8 a2 a0 3f 3a 40 79 83 5d 3a ab bf
       0.03249242604451926 -0.053179666804340234
0002f0 22 0a 17 5d 7c d4 81 3f ca 88 04 59 bc c8 a1 3f
       0.008706065741425798 0.034734617105884505
000300 0b 7a 66 c7 a5 ed 95 bf 57 55 da 8d 67 ba a0 bf
       -0.021414366050175142 -0.03267215353586533
000310 e7 b4 86 e2 64 21 8f 3f e5 52 6a 89 01 6b 9a bf
       0.015200412905722561 -0.02579882050720785
000320 63 42 20 2b 97 6f 9d 3f 8b a0 a6 c0 03 ad 90 bf
       0.028745996482088986 -0.016284998544194223
000330 e3 7e 80 7b a9 48 9e bf 74 28 aa 06 ff 49 aa 3f
       -0.02957405868812558 0.05134579616886095
000340 58 c2 8a bf 30 b0 9d 3f 07 41 42 bd 89 13 79 bf
       0.02899242562370072 -0.006122148555860691
000350 dd 33 c1 8e e1 f6 9b bf ea 9c 93 4f 3a 92 80 3f
       -0.0273089640980294 0.008091407350049502
000360 dc 1c c9 6d 96 62 84 bf 9b 16 2b 4b bb d0 9b 3f
       -0.009953665948286554 0.027163435423764964
000370 97 9f a2 8f 7b 5d 8a 3f 24 18 9e 3e 29 dc 9f bf
       0.01287361652460088 -0.031113285490867906
000380 8b fc ff ff e6 8b ab bf f6 28 c9 84 c7 fd 8b bf
       -0.05380174517630917 -0.013667639484215215
000390 24 ac 07 bb 3d 7f 99 bf 81 2c af 9f 69 cf a6 3f
       -0.024899448910144298 0.04455118250151547
0003a0 d7 77 4b a3 da 36 97 3f ab 35 cc 30 87 2b 94 3f
       0.022670189110492203 0.019697296479582665
0003b0 b0 8b f5 f0 88 4e 81 3f df 35 47 17 38 5f ae 3f
       0.008450574735155175 0.05932021412045762
0003c0 a9 cd ff 5c d2 ef a8 3f b8 77 ec 7c e1 ea a6 3f
       0.048704694607205674 0.044760748385882676
0003d0 13 25 b0 fd 82 39 af 3f e2 12 07 17 80 1d 95 3f
       0.06098565432336946 0.020620347409720526
0003e0 d9 b3 c2 d2 0f 17 aa 3f 67 b8 77 38 47 cd 9b 3f
       0.05095719764481261 0.02715026170874815
0003f0 29 55 01 a3 e1 a8 62 bf 11 77 7f 3d 8c ed af bf
       -0.0022777945487556695 -0.06235922098833958
000400 7f 3b 2a c9 d3 d6 50 3f 2b e0 25 6e 9d 49 96 bf
       0.001027781316824877 -0.021765193794152687
000410 cb b6 78 02 44 6a ac 3f 9f 39 26 14 40 58 ab 3f
       0.055498242665959895 0.053407671413072004
000420 19 51 52 92 71 04 a2 3f 83 b8 58 b9 ed 87 b0 bf
       0.03519015227462514 -0.0645741059786094
000430 3c e9 76 00 be bf a3 3f 48 f9 62 2a 53 0b b1 bf
       0.03857225185079691 -0.066579053734107
000440 fa 94 63 91 12 ca a4 3f 3f 70 60 91 60 93 51 bf
       0.04060419106262177 -0.0010727351232224928
000450 b6 b5 b3 a2 bd 2e 93 3f 9b a7 da 7f d8 1f a1 bf
       0.018732989364186735 -0.033446088416283014
000460 b0 53 41 50 db ad 46 bf 0d bb 20 18 fc b6 a5 bf
       -0.0006921120516475334 -0.04241168779878111
000470 ff 55 19 b2 37 c0 95 bf 36 8a be bb 6e 18 6c 3f
       -0.021241064305590026 0.0034296190987828335
000480 49 62 33 3a 89 73 ac 3f 7b 10 c8 b1 23 a5 ad 3f
       0.055568970064716235 0.05790053887543053
000490 d7 fb 54 18 f2 d9 90 3f cc d4 ca 16 85 89 a2 3f
       0.016456396803956466 0.03620544341303286
0004a0 19 2a 36 a4 fb a9 ab 3f a5 03 b1 29 01 cf a9 bf
       0.05403124217544448 -0.05040744432381609
0004b0 a2 19 c4 a6 68 10 8f bf 48 12 92 b8 56 02 32 3f
       -0.01516801604203694 0.00027479760371588004
0004c0 de 91 51 30 46 63 a2 bf 9a c6 c0 93 40 43 82 3f
       -0.035913651846189984 0.008917335995735787
0004d0 c3 6e 7b 57 ac 50 94 3f 74 af d7 f7 88 88 a5 3f
       0.01983899387310718 0.042057304624761566
0004e0 c8 a9 1e 47 94 5e 86 3f 1e 71 23 84 ee ac 59 bf
       0.010922583027270685 -0.001567109037345089
0004f0 c4 e5 f6 95 15 1b 8e 3f 17 de c7 9a 2d d7 a9 bf
       0.01470009673981821 -0.05046980394757499
000500 38 ac 09 c1 26 5b b0 3f 3d a2 b8 10 05 53 b0 3f
       0.06389085972630049 0.06376678140862509
000510 9e 06 03 56 9c 1b 85 3f 77 47 01 2e c6 bd 93 bf
       0.010306569456932476 -0.019278618390962756
000520 ba 4f 99 49 5a 90 9a 3f 06 a8 42 b7 58 0d a7 bf
       0.025941286794775677 -0.045023701067592056
000530 95 3c 10 23 e4 a0 88 bf 1a 21 27 9e 00 5b a7 bf
       -0.012025625534106058 -0.045616168313758546
000540 9f 72 0a 13 b1 f0 a0 bf 8c 1e 59 85 c2 d6 83 bf
       -0.03308633191520482 -0.009686965650998823
000550 45 2d a7 df 26 54 af bf c4 38 e0 6e 4a 78 73 3f
       -0.06118890266551572 0.004753390077907042
000560 16 80 c1 64 25 b9 83 3f 39 03 e3 0f 8b 09 91 3f
       0.009630481850933886 0.01663796696152817
000570 16 b3 88 03 fe 10 87 3f f4 eb 65 11 bb 5c a1 3f
       0.01126287887844905 0.03391060435657059
000580 8b d0 3a cf f4 fe a3 3f 04 21 dc 12 84 b1 a5 3f
       0.03905453710231751 0.04236996393416528
000590 84 58 73 e1 0c b7 a5 3f 74 89 7a 5b 53 ee a1 3f
       0.042412188072987994 0.03502140514071331
0005a0 a0 d5 4c 2e fb 35 ae 3f 10 70 b1 00 ea 0f 97 3f
       0.05900559368312064 0.022521644871048407
0005b0 be 7a 07 1c 2e 48 95 bf f9 2c 5e ab 2e b3 93 3f
       -0.020783157788055055 0.019238213738884877
0005c0 6c 3a f6 13 ee 91 94 bf 66 59 ee c9 5c 73 a7 bf
       -0.02008792874181113 -0.04580202069262178
0005d0 4b 9d 42 94 62 3b 92 bf dd 53 61 c9 b5 5c 8a bf
       -0.017804661082349054 -0.012872142990241581
0005e0 c8 53 6d 3d 4f 67 a7 bf c4 db 16 c6 49 19 99 bf
       -0.045710064171238296 -0.02451052924672205
0005f0 30 3d 80 81 3a bd a4 bf d0 9d 22 81 a2 24 aa 3f
       -0.040506199176997604 0.051060751212670064
000600 ed 71 33 66 b5 a1 98 bf b5 05 94 7c aa 3b aa bf
       -0.02405436931882037 -0.05123646517496231
000610 28 7c fd 95 44 c4 96 3f 72 42 58 ac 21 3a 9b bf
       0.02223307767360097 -0.026588941711511223
000620 d4 9c d5 98 7e a7 91 3f ae 2f eb 45 1f 62 61 3f
       0.017240503385804143 0.002121983604729003
000630 50 5d 05 2b 8d be 58 3f ce 1c 5f 78 1b c1 af 3f
       0.0015102747530216405 0.0620201668203265
000640 09 e4 79 61 c0 6d a8 bf c0 14 fa 04 8d f4 b0 bf
       -0.047712337397520406 -0.0662315499449333
000650 e2 fa 0a d7 b4 c5 a9 bf 4e 66 b5 3a 9e fe 9e bf
       -0.05033650517497336 -0.03026816590622721
000660 34 77 ba 48 89 55 7a 3f 2d 70 c9 19 79 a1 9b 3f
       0.006429229990002661 0.026983158301263344
000670 ea 2a b7 a9 20 d7 a2 bf 27 d5 d3 dd 7f 74 a1 3f
       -0.03679754325601954 0.03409194548468469
000680 bf b2 bd 56 2a 8f 53 bf 9b be 97 8e 53 20 90 3f
       -0.0011938012566716086 0.015748315408869656
000690 34 a6 d3 2e 86 8e a6 bf 51 bb 8b d3 1f 5a 81 3f
       -0.04405612298598918 0.008472679751745512
0006a0 2e 33 24 00 9a 90 9d bf 40 77 04 cb db a5 5e 3f
       -0.02887192369330476 0.0018705984512687596
0006b0 bc 06 af bd 06 72 a9 bf 1e 36 e1 c2 41 4c 8a 3f
       -0.0496980768725854 0.01284076095557923
0006c0 56 5f c1 1d 03 03 a5 3f ca ea b0 cd b3 98 97 3f
       0.041038606054540835 0.023043450765025487
0006d0 4f f3 2a c4 cf 1c 9a bf 34 20 83 ba ae 4a a0 bf
       -0.02550053248227196 -0.031819782512286926
0006e0 fe c4 7d b1 36 cb 8f 3f 44 58 88 0f e7 34 a2 bf
       0.015524318019489499 -0.035559864660328816
0006f0 02 16 40 28 4c ec a0 bf 39 33 7c 2a 1d 01 9f bf
       -0.03305280677163226 -0.030277686803901836
000700 ec 6c 0a 59 0b 71 77 3f 4b c7 a9 c6 16 89 a3 bf
       0.005723041846660264 -0.03815528082931382
000710 e0 f0 b6 23 6b cc 8b 3f ad 60 e9 5f 53 aa 9d 3f
       0.013573491122649661 0.028970053414327058
000720 be 2d 82 61 c4 c5 98 bf ab ad b9 b5 1e 8e a8 3f
       -0.024191921664664433 0.04795928924871914
000730 c5 09 6c 7b df e6 88 bf 6c 6f 3a 1a c9 9d b0 3f
       -0.012159105257073652 0.06490761652315563
000740 65 af a1 9b 77 a5 91 3f a8 b3 05 91 59 02 aa 3f
       0.017232769845960578 0.05079917807856954
000750 fa a0 c6 1e 6f 0c 9d 3f 59 6f 4f ff 3d 77 9b 3f
       0.028367744687472808 0.02682206030645715
000760 23 ab e5 98 c7 f1 8e 3f 51 35 29 43 50 9c ac bf
       0.015109595635939116 -0.05588007755123193
000770 f2 a4 20 55 2b 79 8b 3f c2 08 fd a4 c9 3a b1 bf
       0.013414705787072798 -0.06730327871358369
000780 f1 53 75 4e 61 9a 88 bf 65 0a ac 2b 37 ea 95 3f
       -0.01201320667920844 0.021401273766068835
000790 2b bb 4c d7 3d 35 93 3f b7 4a 30 0a 0c 1a 7c bf
       0.018757787958004684 -0.0068607778839743705
0007a0 4b bb 78 e2 81 45 95 3f ac 80 11 d3 bb 77 89 bf
       0.02077296204350469 -0.012435405138774357
0007b0 f8 af e0 a1 86 f2 a9 bf 0b 53 c7 8c 02 f1 ad 3f
       -0.050678450832805255 0.05847938507546332
0007c0 c3 50 02 7b 90 5b 95 3f 1b c9 0d 2a 39 7b ae 3f
       0.02085710287845256 0.059533869155432316
0007d0 4a e4 9e ae da 5b a7 3f 50 55 32 68 f0 ec ab 3f
       0.04562266713714587 0.05454207679683043
0007e0 3f b6 c0 5d ed bf 97 bf 27 85 4a 4c 20 11 71 3f
       -0.023193081710067395 0.004166723407849993
0007f0 41 a3 09 f8 46 d1 8c bf 78 2a fd 56 78 ff 44 bf
       -0.014071039623745231 -0.0006408059689218667

bpnn.layers.6.0.bias f8 [32]
000000 cc b3 b3 37 47 39 a4 3f 03 d1 fc 4d a7 e1 58 3f
       0.039499497937732636 0.0015186437448849184
000010 fb fe 62 e7 07 2e 9c 3f 3f 3e 06 9c e5 01 72 bf
       0.027519343850825866 -0.004396340286248412
000020 ae cd ea 3c 8a 2e 21 bf d2 c1 07 8c fb 94 72 3f
       -0.00013108670687743184 0.004536612134402112
000030 6f 02 2d e0 d1 92 9a bf 67 1c 8d 1f 16 23 86 bf
       -0.025950698192220786 -0.010809109533182771
000040 43 36 86 92 ab 98 9b 3f ee 02 a2 72 bb 46 8f bf
       0.026949578111773908 -0.01527162974912374
000050 60 db c1 3d 0c 4e 92 3f 74 a3 22 a6 0b 2d 68 bf
       0.017875853795398355 -0.002951166870009231
000060 35 ca 2e 2b fb 49 6c bf 9c c6 a9 61 e6 ea 7c 3f
       -0.0034532457006773106 0.007059955527994124
000070 0c 64 db 44 43 01 a6 bf 43 bc 13 28 37 d8 56 bf
       -0.0429783841661405 -0.0013943232191271505
000080 05 34 2c b9 5e fe 8f bf b5 d4 af 26 ff 0c a4 bf
       -0.015621891046544443 -0.03916165683032472
000090 df d9 5b f0 75 3e 97 3f 7f af 8d 1e f9 7b 9c 3f
       0.022699206157051562 0.02781666993125453
0000a0 25 81 b9 86 28 31 96 3f c4 dc a4 b6 6c 9b 7d 3f
       0.021671899054468775 0.007228302633215115
0000b0 ab 1b b1 6f f5 8f 85 bf c3 e1 ec 13 52 71 a8 bf
       -0.010528485747398472 -0.047739567692079564
0000c0 21 4f f0 8f 1c f6 93 bf ee d8 23 b4 24 10 71 3f
       -0.01949352863819265 0.0041657861458956735
0000d0 ce 6b 88 ef 8b 36 8a 3f 00 64 e9 01 e6 0c a8 bf
       0.012799351928199611 -0.04697340749107326
0000e0 2b 70 9a 52 b4 75 a8 bf e3 63 06 b5 18 ee 64 bf
       -0.04777301319447277 -0.0025549395142658734
0000f0 34 24 8b 80 5f 66 86 3f 92 7b 2e b1 64 42 8b 3f
       0.010937448606812429 0.013310228974487779

bpnn.layers.6.2.weight f8 [32, 32]
000000 aa 1c 28 79 da b2 8e 3f fa be b1 7c 61 eb bb 3f
       0.014989573309334443 0.10906037611288957
000010 5c 05 eb 65 3b fe af bf 3d 06 36 20 01 fc c1 bf
       -0.062486511412781026 -0.1405030638962205
000020 a2 76 a7 ce 20 58 c7 bf 43 74 de 26 1a 2e b7 bf
       -0.18237695780310498 -0.09054721306752449
000030 ef 8c be b8 da 7c 72 bf ad 10 2a c9 d9 5d 9f 3f
       -0.004513601666903385 0.03063144960698654
000040 e1 a1 bc f3 a3 84 9c 3f 1a f2 fe 50 43 33 a3 3f
       0.027849733115688727 0.03750048030585536
000050 90 44 d3 f5 9a 89 bc bf bb e7 d1 9f ac 0b 81 3f
       -0.11147469045251257 0.008323048236196109
000060 ed c6 4c ec f3 b0 c1 3f 9e d3 a1 2d 18 50 a5 3f
       0.1382126716430813 0.04162669713051702
000070 2a cf 31 54 ad 25 c1 3f 34 f5 a0 e1 46 3a b7 3f
       0.1339623128038679 0.09073298462404439
000080 9b 33 c1 61 b9 fb bd bf 61 ba 75 a3 bb 6b 9d bf
       -0.1171222556742592 -0.02873128113918211
000090 bf 09 c0 18 be e6 96 bf 85 07 5e 6e eb 92 b7 3f
       -0.022364588032368845 0.09208556599153724
0000a0 a2 65 d5 59 11 21 bc bf d8 2c 19 a3 01 41 be 3f
       -0.10987957423403441 0.11817941886799888
0000b0 89 ca e1 0e a6 61 a6 3f 5e 9a bd dd 22 b3 ab 3f
       0.04371375018754004 0.054101075714062516
0000c0 0b 5b 4a 30 15 38 c1 3f 5d 2b 21 74 a3 5a be bf
       0.13452401025707447 -0.11857053361124544
0000d0 89 45 11 a0 94 26 c4 3f 8f 47 07 55 b1 4e c2 3f
       0.15742738548082638 0.1430265107324513
0000e0 8c 15 3d b1 f1 0c ad 3f 26 6e 47 a1 df d2 c0 3f
       0.05673938072736026 0.13143535017921798
0000f0 02 91 00 f4 84 59 b9 bf bd 67 86 7f b6 3e bd bf
       -0.09902220685086507 -0.11423817265895671
000100 38 93 eb 1c e2 0b bf 3f 27 96 1c 3b 11 73 c4 bf
       0.12127507406291904 -0.15976157556831191
000110 46 99 e7 44 e2 85 ba 3f 4d c9 45 3b ab e4 78 3f
       0.10360540563815332 0.006077450631311554
000120 aa 75 1f 7f 9e 5f 64 3f 70 ca 3e 6f 96 88 c1 3f
       0.0024870010029036287 0.13698082382105126
000130 c3 f6 d8 fd 29 e0 7a 3f b0 ce aa e3 e5 de b7 3f
       0.00656143572774476 0.09324490364343307
000140 0b 3d b7 2e be 23 7d bf 5c a5 71 2c 17 42 b4 bf
       -0.007114165211034927 -0.07913346133286353
000150 44 d1 ab 5f 94 0c c2 3f 2d 56 af f2 64 c3 b5 3f
       0.14100889846270992 0.08501273083614853
000160 eb 95 89 b5 44 31 a7 bf 20 92 14 f4 cf b3 af 3f
       -0.04529776302369356 0.061918734116521046
000170 b1 ab 1e de 08 fe a6 3f 80 c6 57 70 68 23 c4 3f
       0.04490688048766545 0.15733056531421497
000180 2c 99 47 37 47 fb 61 bf 80 32 7e fa 30 5c b5 3f
       -0.0021950140892271954 0.08343797793913588
000190 97 05 ff f7 16 33 bc 3f 41 61 6b 4f 66 26 c0 3f
       0.11015456728548255 0.12617186429884877
0001a0 2a 16 e4 10 34 43 b0 3f c0 eb c0 58 37 5d 8f 3f
       0.06352544224144965 0.01531451453785404
0001b0 00 76 3c 6e 52 c5 c2 3f 38 4c 35 8c af 5e aa 3f
       0.14664678938508757 0.051503644814737404
0001c0 b8 84 b9 6c fd 6e a1 bf 9d aa b5 fb 9d 23 b5 3f
       -0.03404991104322036 0.08257472415213347
0001d0 da 65 61 49 bb 72 b8 3f d6 54 ba 32 a1 82 a3 3f
       0.09550066510691782 0.038106000368466716
0001e0 87 fe 60 85 d9 1b af bf fb 3a 50 e7 60 70 b6 bf
       -0.06075935128364756 -0.08765226027774624
0001f0 0f 95 4c 30 9d 8d c1 bf ac cf 50 c6 32 90 a0 3f
       -0.13713421686512858 0.032350146015601794
000200 12 0f 83 a6 67 95 a5 3f 96 67 84 4c 26 4d ae bf
       0.04215549380890428 -0.0591823547749321
000210 b6 8b 73 11 8b a7 7f bf 43 4d c6 11 a5 7c c1 bf
       -0.007728141055141904 -0.13661635749722664
000220 9e 61 58 7b 09 d9 bd 3f fe a3 92 97 da ce b0 3f
       0.11659297238691699 0.06565633965023207
000230 8a 5b 3e 3e 74 c6 af 3f 69 eb 94 e9 fd 0e 77 bf
       0.06206095943269137 -0.005629531712936544
000240 56 69 06 39 32 34 c1 3f 81 98 21 e1 28 fc ab bf
       0.1344054010813333 -0.05465820072349548
000250 f6 61 b5 22 05 9a b0 3f 7d 24 ba f7 e0 3e c1 bf
       0.06485015962005733 -0.13473140808153863
000260 4c 9d 95 1e 9b 43 8a bf b2 69 09 42 f8 76 a3 bf
       -0.012824260588515067 -0.03801704221833137
000270 1c a5 46 c6 24 92 ab bf 45 9b 15 fa e6 2a bc bf
       -0.053849362567527786 -0.11002963643623527
000280 e5 ea f7 c5 5c 6f b9 3f a0 d7 61 9a 31 d3 c0 3f
       0.09935550530637334 0.1314451221293753
000290 e3 75 ad c6 93 86 bb 3f 79 25 53 4e ac c5 8f 3f
       0.10752223587538583 0.015513750210078158
0002a0 d5 db 7f 3f 47 5c b9 3f 74 a9 10 54 41 1f 71 bf
       0.09906430530814643 -0.004180197895985994
0002b0 72 51 e0 a3 33 9e a8 3f 19 15 30 d6 86 5d c5 3f
       0.04808198333208481 0.1669167085494017
0002c0 88 35 aa 8b 42 e0 bc 3f ec 64 42 c1 d0 0d c2 bf
       0.11279693517481892 -0.1410466140412504
0002d0 64 64 b4 71 97 65 bb 3f e4 1c 10 88 ed 34 b4 bf
       0.10701891447060202 -0.07893261501168386
0002e0 80 34 5f 29 ad d2 aa bf 03 84 72 7a ea d1 90 3f
       -0.05238858346965802 0.016425765727607466
0002f0 fd c1 2d 65 a4 a4 8b 3f 38 bf c1 f5 23 24 c0 3f
       0.013497623765688077 0.1261029195770733
000300 a6 37 24 eb 9b 97 b4 3f 2a 82 3c 7b 40 6a b7 bf
       0.08043837061651846 -0.09146502503109191
000310 32 8a 8a e2 5e db ba bf 66 91 da e0 e1 dc 8f bf
       -0.10490983038702309 -0.01555801837395938
000320 77 46 aa a7 79 b5 ba 3f f6 3c 62 16 df 14 a5 3f
       0.10433159201991225 0.041174861414328065
000330 3f 2d cb 98 44 73 ac bf 64 75 77 b0 fb 55 c3 bf
       -0.055566924716539116 -0.15106149784598266
000340 ea f5 d1 ea 35 ba c0 3f 96 ff b3 14 08 c0 a8 bf
       0.13068269697025353 -0.048340084578739326
000350 08 97 b9 8c d8 bb 66 3f 4c b0 c8 29 27 c0 b6 bf
       0.0027751187788450683 -0.0888695218097279
000360 91 6d 54 2f d9 82 92 3f 71 fb 6f 1b d1 77 c2 3f
       0.01807727195146708 0.1442815193149403
000370 fc 67 99 95 c7 29 bd bf 5c c5 3e 0a 57 50 c1 bf
       -0.11391875650716082 -0.13526428222898346
000380 07 d7 ff 13 11 12 aa 3f 2f bc 63 c4 be e4 b4 3f
       0.050919088069276745 0.08161537451427202
000390 d5 b1 ad ed d9 65 b3 3f b6 e6 92 4c 91 cc bb bf
       0.07577287724206568 -0.10859020347097723
0003a0 98 1b ed 6d 2c ec 7c bf c7 20 80 e3 3c c5 b8 3f
       -0.0070611701510817845 0.0967596106930869
0003b0 65 51 09 9b ae a6 b8 bf 99 ad f0 75 f5 e6 8c 3f
       -0.09629336628979031 0.014112394010303219
0003c0 92 27 37 41 42 32 a6 3f f3 62 4f ac 87 e8 b6 3f
       0.0433521942719174 0.089485625808617
0003d0 62 0a 49 6a 7b 35 bc bf db 66 46 72 dd 10 b9 bf
       -0.1101910719380981 -0.09791358985821878
0003e0 b7 4d 77 56 b5 a1 ba bf 6a 49 db 52 f7 b8 ba bf
       -0.10402997361170817 -0.10438485882631246
0003f0 35 91 04 ed d7 73 96 3f 3c 0f 2f 38 80 f1 b9 bf
       0.021926282731457653 -0.10134126063991017
000400 ff ac 3c 30 1d df c5 bf cc 67 5d 67 72 92 aa bf
       -0.17087139945338234 -0.05189855109956873
000410 9e 05 c4 29 cd 97 b3 bf ba c1 15 12 1f 0f b5 3f
       -0.07653505582495376 0.08226198379066477
000420 2d b9 c8 b1 d8 90 92 3f 93 55 a2 dd 86 10 b5 bf
       0.018130670405463057 -0.08228342925061431
000430 72 2b fa bd 65 58 95 bf fa 47 3f 44 d2 9d a4 3f
       -0.020845021934785497 0.04026658137412649
000440 4f 06 62 9e 0a 8a b6 bf d7 da b9 b4 f7 bf c2 bf
       -0.08804384581346734 -0.14648338627349375
000450 26 b2 32 0a 6e 8c b2 3f 14 6c f8 48 24 ec b7 3f
       0.07245528935408937 0.09344698697570691
000460 3e d9 db f3 d2 e4 83 3f ec 96 31 2f 78 89 b5 bf
       0.009713790957431297 -0.08412886764707722
000470 3e ab 0f f0 43 bb b0 bf c4 16 95 8e 33 1a b6 3f
       -0.06535744295949272 0.08633730155005553
000480 7d 89 3c a2 05 17 c2 3f 03 5d 37 34 cc 6d 80 bf
       0.14132757589056757 -0.0080219224391116
000490 03 b7 91 fe 49 a2 b2 bf 90 0a 0a 2b 65 8c bf bf
       -0.07278883423870401 -0.12323601055872246
0004a0 b0 1d 16 7e 9e 8c c7 3f 29 bb cf 2d 0a de 8d bf
       0.18397885471879993 -0.014583663485579006
0004b0 7a 0b 2e 86 51 40 ba 3f 96 29 34 0d e7 19 bd bf
       0.10254392171741059 -0.11367649147374545
0004c0 1e 84 d0 3e 76 54 c2 3f ed c9 a1 4c ba 4e 99 bf
       0.14320257250895535 -0.024714384963269543
0004d0 d9 13 71 02 1d de c0 bf ee 9b 13 b7 a6 e1 c1 3f
       -0.13177836055015638 0.13969882907187475
0004e0 7b 06 f7 5a a8 67 bc bf 27 78 4c 7d 19 6d a4 bf
       -0.11095669003318591 -0.0398948636486554
0004f0 f9 f1 7c 82 83 77 88 bf 7c 66 30 23 79 2c 92 bf
       -0.01194670431106547 -0.01774777676846505
000500 7a 02 65 63 ee 15 c1 3f f4 a8 f4 c4 5d 9b 93 3f
       0.13348178723574106 0.01914736284849368
000510 6e 93 ed d0 d8 33 a5 bf 0c fc 00 d9 7c 03 53 3f
       -0.04141118574515344 0.0011604994979419496
000520 af 5a 46 77 9c 6a b2 bf 81 47 61 da 01 a2 c2 bf
       -0.07193925773604336 -0.14556906855665022
000530 0b 20 f7 86 4d 42 c1 bf 31 fc 6f 3c 51 df c0 bf
       -0.13483590211967597 -0.1318151040177056
000540 5a f5 ff e9 97 81 a6 bf 16 91 fc f0 1f 94 c3 bf
       -0.043957469286378184 -0.15295790926860126
000550 68 55 69 1f 3f 82 aa 3f f0 a8 8f 4c db e6 c3 bf
       0.051774952492148085 -0.15548268545473531
000560 91 2d 9c d5 65 dc ad 3f de 07 73 fe 5c 40 c2 bf
       0.058322126698921235 -0.14258921074184533
000570 58 85 53 ec 4b 15 9f 3f af 96 dc 67 3f 23 88 3f
       0.030354677485666087 0.011785979611498602
000580 93 c9 13 2b c6 b8 b2 bf d7 77 81 12 db c3 c8 3f
       -0.07313192893687974 0.19347704318619094
000590 b4 ab c1 7c 70 18 b7 3f c4 f0 f9 6a 92 c2 8e 3f
       0.09021666570485715 0.015019554032953748
0005a0 32 77 aa 38 84 08 bd bf 02 6e 95 7e 6b 08 c2 3f
       -0.11341120131916396 0.1408819549641152
0005b0 0e 08 44 f3 5a 1d c8 3f f0 ec 65 e5 a2 be 90 bf
       0.1883958518811259 -0.016352219821311686
0005c0 83 46 6c a6 03 5d 89 bf 4e d0 a8 87 74 20 80 3f
       -0.012384441868138701 0.00787440337180825
0005d0 a3 98 3c 15 04 37 9e bf 24 84 0b 11 db c8 b3 3f
       -0.02950674419039302 0.07728356519830065
0005e0 b3 18 58 61 b3 7d c0 bf d6 44 8e 02 a5 c3 ac bf
       -0.12883608105784602 -0.056180149614314764
0005f0 50 30 92 84 84 4f c3 3f 86 bb 87 9c 62 94 a5 bf
       0.15086418603130136 -0.0421477142407332
000600 ba e8 fd 21 de e1 bb 3f a9 fe 66 0e 23 55 95 3f
       0.10891521768454285 0.02083258414654546
000610 1f 73 03 db db ff b2 bf 93 34 8b 79 fa b2 a2 bf
       -0.07421659562119175 -0.03652174695671664
000620 fe 8f d8 f0 e0 48 be bf 9c 4b 11 27 9d e8 c5 bf
       -0.11829954032924658 -0.17116131217570973
000630 f1 0a ab e4 6e 35 c3 bf 22 00 78 2f 98 ec b0 3f
       -0.15006815114437402 0.06611014517693595
000640 17 12 23 04 ad 22 b2 3f 17 30 df 9b fc 73 c1 bf
       0.0708416113948903 -0.13635213480881767
000650 79 18 7d f8 c0 37 c3 3f 5f d0 d2 76 a7 0b b8 bf
       0.15013897069201557 -0.09392782832111511
000660 1a 9b c1 05 7f 29 a1 3f 1d 19 9b 41 a5 92 93 bf
       0.03351971574084285 -0.01911409581114142
000670 32 94 ad 0e 2b be c3 3f 3a 5f 8c d2 01 04 94 3f
       0.15424097267819686 0.01954653594574938
000680 d3 38 c2 d2 cb 3d b3 bf e1 3e 0f 9e 21 49 bd bf
       -0.07516168494678092 -0.1143971453559476
000690 97 f3 2e 7a 65 1b b7 3f 46 1a 0a e3 41 6d c2 bf
       0.0902617858218505 -0.1439592703429346
0006a0 ea 1f 72 b8 32 a7 66 bf 61 38 72 20 06 1d ab bf
       -0.0027652731546972025 -0.05295581003257222
0006b0 fb de b1 6e 1a 1e 7c 3f ca 5c 4c 8d ea 85 9c 3f
       0.006864646197861419 0.027854599832690487
0006c0 f1 9d c9 09 c4 97 8c bf db 9f 59 6f 64 1b c2 3f
       -0.013961345242207353 0.14146094738975887
0006d0 d4 16 88 68 05 b9 be 3f f2 c2 a9 26 76 25 b1 bf
       0.1200106983379457 -0.06697786754535764
0006e0 82 e6 0c b2 4a a4 c0 3f b4 ef 8d 6c 9e 78 8f bf
       0.13001378721110163 -0.015366780937021797
0006f0 29 60 df 73 97 8a b6 bf 54 21 30 d2 fa 79 bf 3f
       -0.08805224017066905 0.12295501357596567
000700 07 b3 f7 d9 27 47 91 3f 09 5c 79 66 14 05 c4 3f
       0.01687299983852866 0.156405019794619
000710 80 8f f7 3b d2 a1 22 bf 59 89 24 d8 86 85 b7 bf
       -0.00014215174995435217 -0.0918812062923612
000720 55 78 4e bc 47 fc b4 3f 86 68 cb ba d1 a0 c1 3f
       0.08197449061705815 0.13772031422451309
000730 77 3b ba 0c 9a 49 c5 bf fe a1 d2 4b 86 40 c2 3f
       -0.16630864736040582 0.14259413435253515
000740 27 e4 c3 7e 60 dc c3 3f db 65 b4 98 8b 29 77 bf
       0.15516287030894313 -0.005654855059469689
000750 3e 7f 86 14 50 1e b8 3f a6 c0 1b a2 4c aa a1 bf
       0.09421253682239425 -0.03450240591871649
000760 54 d6 dc 03 82 b1 b1 3f 66 4b 0e 80 4a fe ba 3f
       0.06911480516722551 0.10544267298091156
000770 25 4d 40 0d 38 fc 96 3f 7b cb c7 cc 77 e3 b8 3f
       0.02244651394728438 0.09722088574907943
000780 9a 84 03 11 db b8 a3 bf 57 40 c3 e6 93 7a 78 3f
       -0.038519712283013166 0.005976274242314692
000790 a8 92 a1 28 04 99 b6 bf c7 2e 93 34 86 8f aa bf
       -0.08827234260531702 -0.05187625304969639
0007a0 60 0c 03 4c d3 7b 63 3f 9f 62 e5 de a9 a8 b9 3f
       0.00237838047914489 0.10022985164449459
0007b0 25 b3 8c 18 50 a1 88 3f 50 52 5d 7e 8e 10 82 3f
       0.01202642989081821 0.00882064173826183
0007c0 4c 28 b9 2c 00 09 bd 3f 76 ea 7a 2f 6b 8e 91 3f
       0.1134185895145105 0.017144846699674386
0007d0 66 16 eb 80 ef 18 b6 bf 22 84 7c 2b 00 b9 9e bf
       -0.08631798646373454 -0.030002596525381738
0007e0 07 a1 25 69 f9 79 bd 3f 22 bf d2 ab ac 9f c8 bf
       0.11514242951455254 -0.19237287893110372
0007f0 c9 a1 6d d4 78 5b b6 3f 01 a3 f7 8a 22 13 c3 bf
       0.0873332518218667 -0.14902145181192597

bpnn.layers.6.2.bias f8 [32]
000000 d3 f8 df 59 20 de ab 3f d9 ad 51 07 f4 35 94 3f
       0.05442906472306821 0.019737065264434726
000010 47 3b 88 52 82 10 c2 3f dc c2 02 05 4c 89 b6 bf
       0.1411288168896709 -0.08803248522122992
000020 a7 70 da 47 d1 9d 7f 3f 47 7d c1 ed 9f da a4 bf
       0.00771886587395102 -0.04073047425549219
000030 6f 96 9d d1 bc af a7 bf 5c 60 10 5f 69 74 91 3f
       -0.046262646282042456 0.017045637538189204
000040 88 f7 4c dd ac f5 b0 3f 3f c1 d0 b2 d5 e1 be bf
       0.06624870684478712 -0.12063346496211567
000050 9c 41 62 c2 68 b3 bb bf 02 26 a6 20 d4 1b c1 bf
       -0.10820631738375258 -0.13366176218214326
000060 4a f9 33 80 4a 5a b4 3f 31 a6 a4 38 a6 e6 b1 3f
       0.07950273160893065 0.06992567904367132
000070 97 3d 70 db fa ed 77 3f e8 a7 e4 2d 7f a0 92 3f
       0.00584218970381247 0.01819037168130669
000080 f3 e5 2f 9a 76 1d c7 bf 46 fe 15 15 01 54 a4 bf
       -0.18058664826075663 -0.03970340139767052
000090 a3 b9 50 f7 03 e2 ae bf da fe 8a 0a 2c 39 c5 bf
       -0.0603181113623237 -0.16580725207130947
0000a0 c1 8a 9a 33 e2 a5 b6 3f 5d 3c f4 a6 b4 84 c1 3f
       0.0884686828599497 0.13686235572865516
0000b0 cd a7 42 ab 8a 40 b5 bf 5a dc 23 e2 d2 57 ba 3f
       -0.08301607781564187 0.10290258427618096
0000c0 0e 9a 38 0c 26 5f 9b 3f ee 95 df d2 4b eb bd 3f
       0.026730150695721426 0.1168715848758308
0000d0 39 c5 82 eb bf c2 bc 3f f8 fb 33 99 52 00 a5 3f
       0.11234664439941335 0.04101808662561973
0000e0 dc 66 14 83 25 e1 bb 3f c7 4a 7c fe 39 ad ae bf
       0.10890421343028883 -0.059915363612295595
0000f0 03 c5 ab 70 05 aa b2 bf 46 31 14 0a 96 65 c5 3f
       -0.07290681839710449 0.1671626614774004

last_layers.energy.layers.6.weight f8 [1, 32]
000000 dc 51 f7 95 14 57 9b 3f b1 e5 0c 39 9c 6c 9e 3f
       0.02669937291450873 0.029711190206602903
000010 19 17 15 87 fd b7 bf bf a1 94 89 ad aa ea ba bf
       -0.12390121982488402 -0.10514322983506698
000020 5a 9d fb 91 40 88 c6 3f 5c b4 3c d0 19 26 c5 bf
       0.1760330879981023 -0.16522524516895742
000030 92 e9 fe 08 ca d2 c8 bf 12 1f 4e 7d df e1 9c bf
       -0.19393277587171248 -0.02820538713743221
000040 21 c0 44 57 91 21 a3 bf c6 de 95 a7 f7 28 c3 bf
       -0.037365476515674574 -0.14968772585756634
000050 cf b7 6c 49 32 35 91 3f 60 ca 43 69 c2 6e b8 3f
       0.016804490787016676 0.09544005460683413
000060 a2 14 3c 3d 24 16 c3 3f 28 78 aa 3c 1c 7c b0 bf
       0.14911320676779832 -0.06439377289868331
000070 a2 d9 16 ee 78 38 b7 bf 2a d6 a5 92 7c e0 c5 bf
       -0.09070545017934831 -0.17091328774010722
000080 e9 a3 2f 44 56 cc b3 bf 63 69 37 e1 ef d9 b2 3f
       -0.07733668484401303 0.07363795517395526
000090 d1 6d 0d 47 4e 6a c1 3f 03 0b 78 14 58 0d 84 bf
       0.13605669469221351 -0.009791076779043012
0000a0 23 1b b5 2b 4d 4d af bf 0f ed 2e 86 23 87 bb 3f
       -0.061136638245946416 0.10753080392798985
0000b0 0c d1 49 65 3e 8a c3 3f 7f be 35 f9 0c 97 c5 bf
       0.15265636392326376 -0.16867220085577014
0000c0 80 32 52 48 62 54 c0 3f ef 4e 8a 22 e1 ec c1 bf
       0.12757519275000462 -0.1400414866117141
0000d0 59 01 bc 18 d2 a9 b3 bf 06 3e f1 03 b8 98 c2 bf
       -0.07681000808589057 -0.14528560822007835
0000e0 57 91 88 fd 37 89 b7 3f 44 4c 86 d4 ed c3 b4 3f
       0.09193754138738562 0.08111463965023896
0000f0 19 d0 0f b8 a0 d2 c0 3f e9 fd 67 11 f0 3f ac 3f
       0.13142785060301845 0.05517530643919228

last_layers.energy.layers.6.bias f8 [1]
000000 44 de f3 24 2b 76 a8 bf
       -0.047776554356400186
