tests/resources/model.pt (torch, 127598 bytes, 7 tensors)

composition_weights f8 [1, 7]
0	0x0000000000000000	0.0
1	0x0000000000000000	0.0
2	0x0000000000000000	0.0
3	0x0000000000000000	0.0
4	0x0000000000000000	0.0
5	0x0000000000000000	0.0
6	0xc06369d9c85a0be6	-155.30783479296878

bpnn.layers.6.0.weight f8 [32, 448]
0	0xbf99ac55eac6d98b	-0.025071470694194836
1	0xbf88fbeab11102d1	-0.012199243096007535
2	0xbfaa5729bd1f7ebf	-0.051446251236254785
3	0xbf99f35d66be5892	-0.02534242572399898
4	0xbfa4d9aec320e79d	-0.04072328693332781
5	0xbf9325c339423e2c	-0.01869874035815948
6	0xbfa0df1364c5650d	-0.03295193295589103
7	0xbf86546868ac9333	-0.010903182691956203
8	0xbf8c36cef83a6197	-0.01377641387016197
9	0x3fa0dd4efc4fa24d	0.032938450145426935
10	0xbfa978e233553851	-0.049750393644544595
11	0xbfafa1caf27ba81c	-0.06178125581739399
12	0xbfad7353f0b39470	-0.05752050698519262
13	0x3f8e7e978bcd6195	0.01488989253418608
14	0x3f9015beb8fc22b2	0.015707950630743546
15	0x3f97c1c106625a2a	0.023200050367984705
16	0xbf937ee232e48fe7	-0.019038709980250614
17	0xbf8761bd84b0a581	-0.011416893588903633
18	0xbfa5ad1f12e6671d	-0.04233643632615112
19	0x3f8e1d8081c49a93	0.014704708061413363
20	0x3f913da393715249	0.016836696504770186
21	0x3fa4d3ead73b6fb7	0.0406793010458552
22	0xbfa30a1ae2bf9524	-0.037186470202678984
23	0xbfa48a0a44bb7c29	-0.04011566247003657
24	0xbf632568a42a3a12	-0.0023371738219062433
25	0xbf915be74047384a	-0.016952145860891478
26	0xbf9e6bacd22136d6	-0.029707622838308044
27	0xbf7fa1e6dcc2a7d0	-0.007722760969196288
28	0x3f8fd5be98689faf	0.015544404054779052
29	0x3fa13bf8ad593f95	0.03366067043373203
30	0xbfa2d08a3ba17f68	-0.03674728372493413
31	0x3f9d8602bc0f1c06	0.028831522682391884
32	0xbf78a040bcd64e65	-0.006012204057146063
33	0xbf98fbd09cb30114	-0.024398097576296143
34	0x3f9360201b5eb0ff	0.018921376867795377
35	0xbfa24080a780572f	-0.0356483654469869
36	0xbf72fda4d4b6a393	-0.00463642489504758
37	0xbf84c03d9f65addb	-0.010132295061985033
38	0xbf9924927c51621c	-0.02455357440735116
39	0x3f8e166175b74c9b	0.014691125302226651
40	0x3f99af622951b77e	0.02508309724037571
41	0x3f9615bee1e88ad5	0.021567328012802662
42	0x3fa101fee210f097	0.03321835050198379
43	0x3f99285bb3dbd58f	0.024568016865449457
44	0xbf96092168c930f7	-0.021519205113052355
45	0x3f969761cfce1a09	0.02206185179559309
46	0x3fa0c37f867a83a4	0.03274153248390313
47	0x3fa447a454353b14	0.03960908439568392
48	0xbfac6d0dca85bb56	-0.05551951501080647
49	0xbf94fa9a673d0b37	-0.02048722510449893
50	0x3f80751bb9896ddf	0.008035866355547703
51	0xbf96c8a337fc4c2a	-0.02224974660118676
52	0xbf79ffbdc0ca05ca	-0.006347409461001383
53	0xbfa11dadef795a32	-0.033429561121625886
54	0xbf7e8153e18ac575	-0.007447555217980341
55	0xbf98327d4507a84f	-0.023630101526500188
56	0x3f541f8bef2298bf	0.001228224424758603
57	0x3f8b4a39ee72142e	0.01332516917160306
58	0x3f9ee6f85786444d	0.03017795595366506
59	0xbf71020f81705e33	-0.004152355736571733
60	0xbfa56dbbc94eec15	-0.041852825473562096
61	0x3f93f78027a32fe2	0.0194988273804454
62	0x3f5bd0b93152ec1f	0.0016977127573187879
63	0x3f8f4279cd5895a4	0.015263511256373992
64	0x3faf50f66f69ea0d	0.061164570904072325
65	0x3f97689d9bc0fad9	0.02286001456399842
66	0x3fab1d6274fe901f	0.052958561688939414
67	0xbf85923d889efe25	-0.010532837612003363
68	0x3fb10bfce3a18271	0.06658917004961908
69	0xbf94bd8dd59657e4	-0.020254341279347346
70	0xbf93cb6fce00e941	-0.01933073706479971
71	0xbfaacdff23aba3e4	-0.0523528796237043
72	0xbf94fa27e21545ca	-0.02048551862146101
73	0x3f9a9e741a695481	0.02599507724001571
74	0xbf8fdb52b3298ae4	-0.015555044262503377
75	0xbf87d2fecb320bd0	-0.011632910324129414
76	0x3faa632eb334bd80	0.05153795182774967
77	0xbfa6cc0a0d0f592e	-0.044525446027977686
78	0x3fa4de6f9c2d504f	0.04075955182511903
79	0x3f982edfb3db01f9	0.02361630950213287
80	0x3fa2a58805579dd5	0.03641915383542097
81	0x3fa4c6dbbb998107	0.04057966866526113
82	0xbf82b78c31982c3b	-0.00913915182447599
83	0xbfadb25bdb0973ae	-0.058001394737153475
84	0xbf14162f2fccfd64	-7.662451748745785e-05
85	0xbf8ae54b879f9fd2	-0.013132658077623125
86	0x3f9704f976a7adb4	0.02247991358482944
87	0xbfa69ead58f89bd2	-0.04417936049531303
88	0x3f4986b37f98b056	0.0007789970833918063
89	0x3f9144759a13e2a5	0.01686271431842336
90	0x3f8e793c277a75f7	0.014879674868377697
91	0x3f64f47786908f96	0.0025579771504613087
92	0xbf976e15c994926a	-0.02288087885712501
93	0x3faaa075b4839231	0.05200546101130888
94	0xbf3568f6374104be	-0.0003266907799606803
95	0x3f73a6704e15baa4	0.004797400180321407
96	0x3fa02ce4c6e25bad	0.031592511442048866
97	0xbf9b1f6baeb0aabc	-0.026487047707784525
98	0xbfa0c3098c7de160	-0.03273801650988406
99	0x3f9d12cff37d9a5b	0.028392075764168783
100	0x3f5538a1ecda84b0	0.001295240526282531
101	0x3f8a79d557d3f50a	0.012927691214367449
102	0xbf9828a21caa635d	-0.023592503547294686
103	0xbfb06121714eec20	-0.06398209587398229
104	0xbfad76d85039c041	-0.0575473401958111
105	0x3f8d2e822098e3d6	0.014248863811291129
106	0x3f9a8d33992b3703	0.02592926618927206
107	0xbf8692ff484e6856	-0.011022562402832541
108	0xbf902095e607d7d2	-0.015749303975063196
109	0x3f63b9b3edb8c9c0	0.0024078859549032383
110	0xbfa49a6e4e1a0884	-0.04024071410550881
111	0xbf9f2100337f2e26	-0.030399325507273776
112	0x3f93af14f628dadb	0.019222571873082166
113	0x3fa9a018fd04ec49	0.05004957283605244
114	0x3f97853226b79876	0.022969039548023727
115	0xbfa78f59acfc9453	-0.04601555096295642
116	0xbfa080d07b492d76	-0.03223277573541854
117	0xbf6d1d90e82ed56f	-0.003554137250342641
118	0x3fafb52769552b41	0.06192896996306852
119	0xbf94a434d13c03d6	-0.02015764739099154
120	0xbf8550fb0a2fb859	-0.01040836453281828
121	0xbf93b66f84fe33d4	-0.019250624172446454
122	0xbf92a898cb63943b	-0.01822127095592328
123	0xbf803a0070bdc838	-0.007923129501907863
124	0x3f7ecf1c3e64cf42	0.007521734549573557
125	0x3fa935b3f0f8543b	0.04923784557846785
126	0xbfa20da95c05acd8	-0.03526047943418015
127	0x3fa8bc9f4f9c51ed	0.048314074009031184
128	0xbf91609ea6c8a2f6	-0.016970137529059813
129	0xbfb111a03f062638	-0.06667520083114986
130	0xbf9ff70fd6b92375	-0.03121590374056234
131	0x3fa0e66a582b72b8	0.033007930052666834
132	0xbf9672b74d04b0b9	-0.02192198188383607
133	0xbf94393d8d3d7827	-0.01974960493623015
134	0xbf91cadba5004462	-0.01737540430628249
135	0x3f4b20bc548e063e	0.0008278770047668927
136	0xbf85192db53d238e	-0.010301930516691173
137	0xbfaf69b3bd675f11	-0.06135331809099232
138	0xbfae8a059881592e	-0.05964677321087418
139	0xbf792d9d40da4199	-0.006147016783544145
140	0xbf9c759e9535a2a8	-0.0277924326486835
141	0x3fa3e1f80d9d2f3b	0.038833381330361814
142	0xbfa802e8f92a2578	-0.04689720193443753
143	0x3fac4c147a47ac1e	0.05526794426608482
144	0x3f94d8c9313c392e	0.020358222608643554
145	0x3f908bbb7c8f9919	0.01615803668746549
146	0x3f792334e4f00b40	0.006137091272651329
147	0xbf79d1b3037fb6c4	-0.006303500435007773
148	0xbfa3b065b6431344	-0.038455179690152025
149	0x3f9c5d3a11e227aa	0.027699382154004283
150	0xbfa0974465fccfd4	-0.03240407700505413
151	0xbf9849e0c09c40e9	-0.023719321971896887
152	0xbf99451a4bdcd9eb	-0.024677668457309492
153	0x3fa64552cafd1852	0.04349764564408133
154	0xbf9ec7eee977a58b	-0.030059559821813003
155	0xbfa24d1c139d1c32	-0.03574455012726964
156	0xbfa8acaf37bbec74	-0.04819247775409333
157	0xbf95d467e0be87eb	-0.02131807622175323
158	0x3fa0140e7247052f	0.031403018426781386
159	0x3f9d5e4b5ccbaa9e	0.028680017031471487
160	0x3f806e07a1dcabd4	0.008022365214477668
161	0x3f7c314c0fe8b860	0.00688295089507393
162	0xbfa654b26955839e	-0.043614936216506126
163	0xbf7b60e01ca120de	-0.00668418449101457
164	0xbf906cb80e842970	-0.01603972996330455
165	0x3f945c0af3d82475	0.019882365353656135
166	0x3f92f7ed2237f041	0.01852388879159173
167	0xbf95b56efb0566e5	-0.021199926444160595
168	0x3fabc22db0993754	0.054215839202341215
169	0x3fb05ad56843c930	0.063886011081
170	0xbf9b2919fc1e8f2e	-0.0265239772921994
171	0xbf95c539af6dc08b	-0.021260167438811577
172	0xbf7e60c2e3b0f288	-0.007416497504035953
173	0xbfa57e42bdc87d46	-0.041978917757882914
174	0x3fa275aa96f2d65f	0.03605397312769009
175	0xbf90318a7685ed97	-0.015813983425216085
176	0x3f8c2ac48c28465a	0.013753448035490102
177	0x3f5aa9b85a2ddd90	0.0016273784937917736
178	0xbf8a45eb7cb1ec02	-0.012828674071206695
179	0x3f8091245ee07199	0.008089336533935664
180	0xbfa82363258a8878	-0.04714498360887459
181	0x3f90a8b078146fcb	0.016268498734561192
182	0xbfa84f8ceee034e3	-0.047481922301906974
183	0x3faefdc70885fde8	0.0605299184708164
184	0x3fb0588cab3b9e8e	0.0638511579560321
185	0x3fa216c192d020db	0.035329865619191124
186	0x3fa9ded728dbf382	0.050528262841885954
187	0xbf94813ea0c3fb5c	-0.02002427917704651
188	0x3fabf5dd73b2f5f1	0.05461017644254785
189	0x3f8ec6eb8f96fcd4	0.015027847594750211
190	0x3f9534682fe6c725	0.020707729266809544
191	0x3f98984d17d9b593	0.024018482762064485
192	0x3fa14a31bb2a7c44	0.03376918229809481
193	0x3fab2fb667e6f186	0.05309839266144238
194	0xbf731a3e3b7b36de	-0.004663699240791989
195	0xbfac9034dd24b70f	-0.055787708277746366
196	0x3fa5d6dfc5d83aa8	0.04265498437972798
197	0xbf96b80c036b6333	-0.0221864583098494
198	0x3fa9880ca10c88ec	0.04986609903268566
199	0xbfafb0859be98212	-0.06189363029693963
200	0x3fa2c6a03bfa81a7	0.036671645471190666
201	0x3f77072dfda7a227	0.005622081424441683
202	0xbf963ed8c944e9d9	-0.021724116596695573
203	0xbf96fcfada39c6fe	-0.02244941670364308
204	0xbf937472a1bcb394	-0.018998900529527754
205	0xbfad5790818b8ba7	-0.05730868893967705
206	0x3f9feba992e6be65	0.03117241820444718
207	0xbfa6a031c11b7589	-0.04419093591944107
208	0x3fa77b006c8f9fc7	0.0458603031655112
209	0x3f8b12cd691ccc08	0.013219456453589032
210	0x3f9bd7adc2f74e72	0.0271899366615131
211	0x3f946c2a1d670d35	0.019943864864911027
212	0xbf5a25dd533ef914	-0.0015959416750628884
213	0x3f777cecf8396eb5	0.005734372770884445
214	0x3fa2965adc20de95	0.036303367015020495
215	0x3f936156cc6ece92	0.018926006534185698
216	0x3f42a318b99c4270	0.0005687590339410031
217	0x3fa55d6fb63ed921	0.04172848796535989
218	0x3f97d6ccff361237	0.023280337406975184
219	0x3fa322944ed72426	0.037373194336005874
220	0x3fa0d0f2fd7131f7	0.03284415572906945
221	0xbfa36f6a7acefd11	-0.0379594111359386
222	0xbf950e17dafd1223	-0.020561573735237936
223	0xbf511ce4b99c877f	-0.0010444863932623503
224	0xbf7991df5dca7403	-0.00624263050545171
225	0xbf9a9cf81e9b2b55	-0.025989415042924808
226	0x3fa9d010bf189f8b	0.050415538146182014
227	0x3fa58e3aa3edbad7	0.04210074664194046
228	0xbf86ab49cdab3f4e	-0.011068893994348319
229	0x3f8e48592265648c	0.014786430704292884
230	0x3f8dc3a01b183fef	0.014533282114854244
231	0x3f7a7647c3b7c913	0.006460457163017591
232	0xbf92ce445621d322	-0.018364970929229625
233	0x3f8f24a02fe884f8	0.015206576787991186
234	0xbfa037eddeaefb5b	-0.031676705773398615
235	0x3f9038c51e1b0ef3	0.015841560328012382
236	0xbf945a5eafd29733	-0.019875983697281895
237	0x3f9f4084cd9eff5a	0.030519557046999914
238	0xbf9f2181f4d95de8	-0.030401259011652387
239	0xbf8c94c975a2d322	-0.013955663588015425
240	0x3fa9bbd12ee1e2a4	0.05026105592054833
241	0xbf523d6bbaa9251b	-0.0011132766764084315
242	0x3fa592fb25706e15	0.04213700134297597
243	0x3f9cf73a339cdc84	0.028286847496215475
244	0x3fa7d8a497387bdc	0.04657472940402105
245	0xbfab40a08b97c7d2	-0.05322744087233357
246	0x3f6ecfb830ce65e8	0.003761157748567657
247	0x3f713bce8232e3b9	0.004207426714111167
248	0xbf53eb73c0f75d15	-0.0012158041389421271
249	0x3f98a7ab9fa53320	0.024077111834503673
250	0xbfa5e0dc21982681	-0.04273116979682091
251	0x3f99b26fa58ac43e	0.025094742277989683
252	0xbfb0a7ecb901a989	-0.06506232754478537
253	0xbf91b58817b05171	-0.01729405064186679
254	0xbf8b49c401f2ffd4	-0.013324290570721965
255	0xbf687d0fad14a6cf	-0.00298932134378025

bpnn.layers.6.0.bias f8 [32]
0	0x3fa21ed4989623bb	0.03539146769168818
1	0xbf593c8edd112c3e	-0.001540317073039046
2	0x3f80342293233f4e	0.007911939730916775
3	0xbfa4ccfae5b2fd72	-0.04062637380547586
4	0x3fa7cdbbc4e3604b	0.046491496833994526
5	0xbf8a4b0923d8e204	-0.012838431745977104
6	0x3f866995c82db508	0.010943575068916647
7	0xbf5e9c63628f592c	-0.001868340545333756
8	0xbf904c6665b240f6	-0.015916442830133236
9	0x3faf01ae4682f245	0.06055969820724675
10	0xbf6c5d205a3620a7	-0.0034623748667322487
11	0xbfacba38c6dd0c80	-0.0561082594636213
12	0xbfae1bd3a00d4c27	-0.058806050574866035
13	0xbf87f715badd3bac	-0.011701745762960979
14	0xbf61deb1813d4148	-0.002181383790152012
15	0xbf9ae27d1046c237	-0.02625461017459171
16	0xbfa244ef90be2ac3	-0.03568218843345996
17	0x3f82c9c0a60271ee	0.009173874918183746
18	0x3fac9842e0164065	0.055849161009178507
19	0x3faa9db5fe1d2ce3	0.051984488744517575
20	0x3f94180e03673af0	0.019623011548726532
21	0x3fa94d8396817771	0.04941951000431189
22	0x3f41df789440a246	0.0005454386487189842
23	0xbfab663ebc6db61f	-0.053514442922147014
24	0x3f7d741f7a2e8893	0.007190821607681158
25	0xbf958ef448f8f460	-0.021053139642607355
26	0xbf7775be83a45ff9	-0.005727523990820765
27	0x3fa1a8bcb5bba76c	0.03449048727436729
28	0x3fa8a5dbd3f383bd	0.04814040148062968
29	0x3fa95b9740ffad80	0.04952690761987366
30	0x3f953250d34116e3	0.020699751752792827
31	0x3f9b01d15ebada84	0.02637412205396085

bpnn.layers.6.2.weight f8 [32, 32]
0	0x3f89e9cc178bc5e6	0.01265296408516554
1	0x3f92e20815bf1b87	0.0184403670571345
2	0x3f39e230e143ee1c	0.0003949517570302778
3	0xbfc128da91e60dfa	-0.1340592586894756
4	0x3fc4fd594f175170	0.16398159372205212
5	0xbfb9e2ef07f6c367	-0.10111898369247073
6	0xbf90855834fe5a8e	-0.016133669123144893
7	0xbf96f037ad5767aa	-0.02240073199741458
8	0xbfc0239eda18aa0a	-0.1260870518611486
9	0x3fab0762f2416948	0.05279072959156622
10	0x3fc88693ced98224	0.19160697555618456
11	0xbfaae9dad6779af7	-0.052565420799330846
12	0xbf9b9f826a464dd7	-0.026975667702186925
13	0x3fc264e702e6d04d	0.14370429650955643
14	0xbfc6f6764e1fe7a5	-0.179396427294532
15	0x3fc1f997d3f5573c	0.14042947625665103
16	0x3fbe945d62654783	0.11945136692273021
17	0x3fb90f7a6b72d579	0.09789242861991977
18	0xbfaeb850d1666d95	-0.059999967156922164
19	0x3fc368e042f1edf2	0.1516380621795715
20	0x3f5fa7bbdb810ad8	0.001932080702332575
21	0x3f99c3cc9cefb395	0.025160977438577332
22	0x3f80f716c5d229e9	0.008283784782425268
23	0xbfac55da8367ba43	-0.05534251073901377
24	0x3fb6221b70466d45	0.08645793429461886
25	0xbfb41e6deee0987d	-0.07858931619611727
26	0xbfc54071e6b094cc	-0.16602920307301472
27	0xbf9120c8fc7d7629	-0.016726627741595976
28	0x3fb6fb0650150b22	0.08976783232814659
29	0x3f80e1ad5d7772f2	0.008242945113062092
30	0x3f8ce3d970cdaef0	0.01410646319865047
31	0x3fc3a264fdf474e8	0.15339338684217485
32	0x3fb8a0332ea04341	0.09619445694285124
33	0xbf802fac478b6c45	-0.007903428967827373
34	0x3f87653e2c81b75a	0.011423574193226638
35	0xbfb6b0eb3ed41909	-0.08863706859492394
36	0x3f99c77d0be3ba7d	0.025175050593072335
37	0xbfc24dd99ec4080f	-0.1430007958625201
38	0xbf78adb0acd26686	-0.0060250188227201126
39	0xbfa55da2aeccaa83	-0.041730007016970404
40	0x3fbe00536b0e9108	0.11719247211164341
41	0xbfbb3db26ef75a3a	-0.10641017159591906
42	0x3fa9b7542f14f463	0.05022681307534851
43	0xbf9f02be89af9454	-0.03028390612952976
44	0x3fc378048c52a1a1	0.152100151555044
45	0x3fc55d97d5ad9bab	0.16691873486999262
46	0x3fb92fab65d859c4	0.09838362919285887
47	0xbf940fc5b7f5a581	-0.019591416695595058
48	0xbfc488ddf197ec46	-0.1604268483787072
49	0x3fbe44a4312ea1ec	0.11823488426910672
50	0x3fbf6a3604c3c119	0.12271440140080293
51	0xbf9354c63d0f25b3	-0.018878076054340286
52	0xbfa396452d2bd9c8	-0.038255845798562726
53	0x3fc334a8662a81af	0.15004448879791485
54	0x3fbd071906785444	0.11338955314597948
55	0x3fc0df69eba8fd6e	0.1318180466350713
56	0xbfc5f7ef1d68debe	-0.17162884651201255
57	0x3f9532e377568123	0.020701936873252735
58	0xbfb53ddb9068fb85	-0.08297512317311202
59	0xbfad96b4d65a9b1c	-0.05779042355179895
60	0x3fc28886d9ff3bb2	0.1447914661825656
61	0x3fc859ac83720faf	0.1902366296600326
62	0xbfc14b878e34ae61	-0.13511747783319364
63	0x3fbae015cec910ee	0.10498176859352146
64	0xbfbfee66ed653431	-0.12473147674354902
65	0xbf93b15aa7f815c3	-0.019231239797610444
66	0x3f7a39479d7bc3e0	0.006402282473332271
67	0x3fbac3e01802281f	0.10455132089751416
68	0xbfaa2670b717faa7	-0.05107452616720325
69	0xbfc22545719ef4aa	-0.14176242874046824
70	0xbfb84259b53ca167	-0.09476242708899961
71	0xbfaff2c2900eb6a0	-0.062398986897602926
72	0xbfb3f74838f98d2f	-0.07799197569834314
73	0xbfb609ada2546e9d	-0.08608517850046345
74	0xbfb4465f7ec623e0	-0.07919880719249717
75	0x3fbac68738b74798	0.1045918000666276
76	0x3fa626c5e72aeeee	0.04326456496116103
77	0xbfbf77935f4b9415	-0.12291832996886883
78	0x3fc0d37cccef0c1a	0.13145408636600636
79	0x3fb6bdb650909650	0.08883227793611437
80	0x3fb209c5d724a394	0.07046162130849459
81	0x3f98abf84ce2a490	0.02409351319571279
82	0xbfaa289cf7c49dcb	-0.05109110378753775
83	0xbfaa7440b22c36ad	-0.051668187856291105
84	0xbfb9e677dc816a1c	-0.10117291577754667
85	0xbfa1bf0f19ac911a	-0.03466078937916191
86	0x3f3d2057b530b93c	0.0004444326525029523
87	0x3fb1e8a962f39eb5	0.06995638528644117
88	0x3fc7c6c95dd3f52a	0.1857539852279982
89	0xbfa98dec145898dc	-0.04991090534558548
90	0x3fc80152da9f9bee	0.18754039454435606
91	0xbfa0e956a8cb0428	-0.033030231575601754
92	0xbf83e21390cc58c1	-0.009708550316230082
93	0xbf96b00be51995a3	-0.022155938966894727
94	0x3fc35595dd619d53	0.1510493594134724
95	0xbfc7c37b94d4609a	-0.18565315978117242
96	0x3fb38a92627c63e0	0.07633318809929746
97	0x3fa566057f557d5e	0.04179398707742153
98	0xbfc7ee4303189aaf	-0.1869586720578886
99	0x3fc2e8438581dd1b	0.1477131273165718
100	0x3fc18ae9559932fe	0.13705174140559245
101	0xbfa2b7ebb7a11b82	-0.03655945412224694
102	0x3f904088d0a2ddc8	0.01587117932714735
103	0xbfbc79543be4b937	-0.11122633421175442
104	0x3fb950a05a6b28c0	0.0988865109203827
105	0xbf8096f90d30c11b	-0.00810045787338303
106	0xbfb5dfe9951c83ac	-0.08544788256086971
107	0xbfc5e4b26f3b4b2c	-0.17104177886229743
108	0xbfb1b208089961d8	-0.06912279329242865
109	0x3fa3d70ccc4ae93f	0.03875007623487869
110	0xbfb3c09a46d61903	-0.07715763310816119
111	0xbfbc898b2119f58a	-0.11147374685420722
112	0x3fb2119fe60ebf12	0.07058143011704157
113	0x3fc46f1f0910ca2f	0.1596411508813431
114	0xbfb2992f884ef9ad	-0.0726499278816621
115	0x3fbffbcc478a6320	0.12493588205905981
116	0x3fc156a1862832fe	0.13545626688610207
117	0xbf95e0bb6ecb7edc	-0.02136509765375548
118	0x3fc26c9dc8fc079e	0.1439397078866564
119	0xbfbbdfe9dd6d63a2	-0.1088853993982313
120	0xbf99661c48491914	-0.024803583061179316
121	0x3fc118fa0a671f30	0.13357472904157808
122	0x3fb5a63fee25f9c2	0.08456801952522766
123	0x3fa4ea5bca4e6422	0.040850513883192954
124	0x3fae7a2e767ed040	0.0595259208343184
125	0x3fc1129454344751	0.13337949859174583
126	0x3fc77b1d0302cf59	0.1834446205808671
127	0x3fabfb062bb46491	0.05464953692917008
128	0x3fac9f591c13e8e7	0.05590322940584418
129	0x3fa70d61bcdd4056	0.04502396994087181
130	0xbfb69f1bc815b894	-0.08836530337223031
131	0x3fc6275aabe58bea	0.17307599442855742
132	0xbfba885b0bde3759	-0.1036431220984161
133	0xbf9253f5d0c24b55	-0.01789840780891024
134	0x3f9484ce071a6f30	0.02003786009173253
135	0xbfc1ad64b3f12896	-0.13810404573661533
136	0x3fc7b6efa2fc634e	0.1852702661351721
137	0x3fc0c4ff07b834c2	0.13101184727603338
138	0x3fb8ed11e7e29587	0.0973674002767294
139	0xbfaf1eb10edc8efa	-0.06078103357711302
140	0x3fbbbe0555e1ad18	0.10836823794095485
141	0xbf4f73c3ca2b81ca	-0.0009598451618693601
142	0x3fb519b7b14a7bf8	0.08242366865532336
143	0xbfbafe55bc273ad0	-0.10544334262452115
144	0x3fb926852184b6e2	0.0982440192062444
145	0x3facce7dbd1d82fe	0.05626290257965215
146	0xbfb02303884bd91e	-0.06303426816507282
147	0xbfc4cf98a3654781	-0.16258533457090255
148	0xbfc5474a772bc4a8	-0.16623812502760882
149	0xbfbe50cb3dccc131	-0.11842031725678194
150	0xbf87bd96590526c7	-0.011592077819517667
151	0x3fc030089c25e267	0.12646587013638852
152	0xbfc31e1a5302c683	-0.14935616544021366
153	0xbfc2412a4cc5d6a3	-0.14261368511840997
154	0x3fbaa56ede603cdf	0.10408680848216843
155	0xbfc70497ebcfdef2	-0.1798276807237396
156	0xbf205268245d78e8	-0.0001245262266662058
157	0x3fb4599c19d935c0	0.07949233656946486
158	0x3fb74bbaad2762de	0.09099928595913861
159	0xbfc15ec5c2a967ec	-0.13570472722022886
160	0xbfbcb8f76f6aa647	-0.11219736547595814
161	0xbfaacfb7075070ad	-0.05236598934445289
162	0x3fbc2965ddae834b	0.11000668203497559
163	0x3fc6c42008171829	0.17786026377706435
164	0x3fc198458c4c2c5e	0.13745946264711767
165	0xbfc6ded2eb64b889	-0.17867504590816832
166	0xbf93b4166126e7bb	-0.01924166648834789
167	0xbfb121b64ceec76f	-0.06692065599670881
168	0xbfc2bd10e57cbe32	-0.1463948364775987
169	0xbfbaa701982ccc2b	-0.10411081280908323
170	0xbfb85ca0dfe9d882	-0.09516339747082905
171	0x3fc4da958be015db	0.16292065934992092
172	0x3fc17a8e742d4fdc	0.1365526263494975
173	0xbfc586ed84ea94e1	-0.16818016996436483
174	0xbfa7dd7134780464	-0.046611344962010276
175	0xbfc0fd98c69be8b4	-0.13273915956216842
176	0xbfb8ab6ddb46a33a	-0.0963658008901235
177	0xbfc37145cd651b35	-0.15189430741357915
178	0xbfb9fc99027963ab	-0.10151058493046487
179	0xbfc41d79196142b4	-0.15714944590810875
180	0x3fc256e22d2099d2	0.14327647403224703
181	0xbfbfc3bc28c9b7f9	-0.12408042903709306
182	0xbfa8ece549510400	-0.048682370376361916
183	0x3f8ac1d33a3aa046	0.013065004553325942
184	0x3fbcb809ff3ec74a	0.1121832130582138
185	0xbfbc77bdcfe87b14	-0.11120210958368332
186	0x3fc6400a6dee1088	0.17382936828301276
187	0x3f5205e272ae5440	0.0011000358015043205
188	0x3f9f9cc3a5000f1e	0.030871445604147778
189	0xbfa8f7d97985096e	-0.04876594169992897
190	0xbfb11e1bb53c16b1	-0.06686566519428074
191	0xbfb47f645a36e639	-0.0800688476801036
192	0xbf9f5a58c992e698	-0.030618083289232517
193	0xbfc3f7e8ffae9636	-0.1560031174132505
194	0x3fb5ec9556ad583a	0.08564122549191291
195	0x3f8030c594b5c0b3	0.007905524826782395
196	0x3f9eec077ae9fb56	0.030197255017351786
197	0xbfc0b6bdcc1404f3	-0.13057682480579266
198	0x3fad0f2a88a19c61	0.05675633352148491
199	0x3fc1d8f35d413c32	0.13943330815752258
200	0x3fb8263cf1b71ffb	0.09433346654179779
201	0x3f9314cc0f08ca63	0.018634022157309704
202	0xbfbcbb3092959565	-0.11223128870695616
203	0x3f8503a6d8eb2a91	0.010260871405440216
204	0x3fa758240ccd8be3	0.045594336092811515
205	0xbf9f6d21de15d34d	-0.030689744167335765
206	0x3f9ceb9a28aaa3da	0.02824250100335122
207	0x3fb6b91cd875a7e4	0.08876209530504259
208	0xbf8f9a0fe190e57a	-0.015430568762996744
209	0x3fb73d83c53b238f	0.09078239026270139
210	0x3fba3e94eee579da	0.10251742203170214
211	0xbfc05f3ea432e143	-0.12790663735882832
212	0x3f93f2da34538485	0.019481095737209592
213	0xbfc0ca43e507cae5	-0.13117264445425927
214	0xbfc4c82b9f7d46b1	-0.16235871589247133
215	0x3fad47987f09d223	0.057186856753933556
216	0xbfc33aef6f5350ab	-0.15023606239140483
217	0xbfc5c4ccd36c8b8c	-0.17006836245954238
218	0xbf6037ca10c72736	-0.001979727420096912
219	0x3fc276fd28d23c2b	0.14425625317787313
220	0xbf8da12eb9b1ed9b	-0.014467587511026994
221	0xbfbcb076e321020a	-0.11206763310566017
222	0xbfc75f50a04505da	-0.18259628129639688
223	0x3fb33b33d2e3d94e	0.07512210749323353
224	0x3f957158a0a3ffc1	0.020940193943715494
225	0xbfb1b9b9f11cff9f	-0.06924020897440507
226	0xbfc3eaf0e648387f	-0.15560733074420693
227	0xbf8d35d620e79331	-0.014262841109436404
228	0x3fbe4949a6454586	0.11830578145352008
229	0x3fc30378839526bf	0.14854341912205446
230	0x3fbca51185dbd604	0.11189374464068896
231	0x3fa53767b308af4f	0.04143833218071668
232	0x3fc67700421d2429	0.1755066225835276
233	0xbfbfbc9d58b02944	-0.12397178092229405
234	0x3fa7bf3b6eefd345	0.04638086060723493
235	0x3fbdc81d0ff51fe1	0.1163347400625976
236	0xbfb585f551427085	-0.084075291002991
237	0x3f8f658b4a8d345b	0.015330398762353583
238	0x3fb66caa7feae493	0.08759561179148738
239	0x3fbf288501fe4b69	0.12171202944436534
240	0x3fc42624b377c4d1	0.15741404307440246
241	0xbfc05707aa822b44	-0.12765594316109674
242	0x3fa67bf190163d6f	0.0439143646609591
243	0xbfc0b9678358661c	-0.13065809167237397
244	0xbfb96dc041b154a4	-0.09933091739488248
245	0x3fbaa8abdc746e16	0.10413622028539068
246	0x3fc1287d908975a5	0.13404817159145668
247	0xbfc009e5488abf46	-0.12530199091042443
248	0x3f8ddde4e1661202	0.014583385590193568
249	0xbfa7623e69c2579b	-0.045671415720035934
250	0xbfb12ca7ed26655c	-0.06708764591021094
251	0xbfc4b81d0085a5cc	-0.16186869168750062
252	0x3fa5804dc3fd328e	0.04199450509495249
253	0xbfb7850b7c0f696b	-0.09187385348142178
254	0xbfc60f04c0e565a7	-0.17233333033327122
255	0x3fa496a77bbdf9a7	0.04021190057300155

bpnn.layers.6.2.bias f8 [32]
0	0x3fa1ae03e23ffad9	0.034530755394362074
1	0xbfbcb22438438af0	-0.11209322332028271
2	0xbfa6fdb2c9455a8f	-0.04490431506080938
3	0xbfaa86ce259626e4	-0.05180973252124746
4	0xbf9b77917d08ecca	-0.026823304420969397
5	0x3fa0cc13508a1425	0.03280697210451703
6	0xbfb3d3f67fbc7fae	-0.0774530469757326
7	0xbfa5bdbccbd2f3bd	-0.04246320713125538
8	0xbfc1ce9d26038cae	-0.13911785465379495
9	0xbf818ed17f0ded02	-0.008573185624973782
10	0xbf788d2176f2c690	-0.0059939677441193245
11	0x3fa703c051220f67	0.044950494674622025
12	0xbf937ae9bc559c78	-0.019023563499470403
13	0x3fc45aee041e3d6e	0.1590249557598144
14	0x3f96450718e8c519	0.021747694869366094
15	0x3fc233f66545a8d9	0.1422107691281045
16	0xbfc728f455035e87	-0.18093732977898844
17	0x3fbae6e5849370a4	0.10508570181576943
18	0x3fba7045899c85b6	0.10327562913564389
19	0x3fbf0be27f2b8a03	0.12127509693849707
20	0xbfbb7a3e3d00e8e9	-0.1073340319570978
21	0x3fb42b1638226ef8	0.07878245230170566
22	0x3fba97943892bfbf	0.10387541180784775
23	0xbfc20d2fe9907835	-0.14102744011410243
24	0xbfb0261c548aa6b2	-0.06308152259830527
25	0xbfc3a0a7c7e61b8e	-0.1533403135365145
26	0x3fbef330af6b56d8	0.12089828760812382
27	0xbfa31857a1499977	-0.03729509204713371
28	0xbfb54a94f8287496	-0.08316927965684537
29	0xbfab7ec023286db8	-0.053701404849756995
30	0xbfb8edd37a3c6369	-0.09737893804812149
31	0xbfc2df4567e05509	-0.14743869373402443

last_layers.energy.layers.6.weight f8 [1, 32]
0	0x3fc2adb4a9789726	0.1459260776038544
1	0x3fb4b5dd5b80bfb8	0.08090003475149288
2	0xbfc681679df76f8f	-0.1758241196938539
3	0x3fa8932e5a8d4999	0.04799790244455266
4	0xbfc1057e6624c848	-0.1329801558254664
5	0xbfb8ab3b4d1b56fc	-0.0963627875565542
6	0xbfb6c39c36fd0fee	-0.08892227499478597
7	0xbfbcaf1039c4123a	-0.11204625520992631
8	0x3f94c106441e7239	0.02026757994427639
9	0x3fc36cffa9cdd144	0.15176387587747275
10	0x3fbbbf14d1c6dea5	0.10838441964630847
11	0x3fc4f99105377751	0.1638661647293085
12	0x3fa7cc47fc21b3ff	0.04648041680125203
13	0x3f9a0a170d9c1049	0.025429115491548058
14	0xbfc5ffa646ad09b7	-0.17186430407498474
15	0x3fc2366005c35ccb	0.14228439599421558
16	0xbfc137a9d0a7770d	-0.13451121032897398
17	0xbfc2f8be07ba5b83	-0.14821601273862592
18	0x3fa5cabab72eb334	0.04256232725251721
19	0xbfc33da1904eb132	-0.15031833215960827
20	0xbfc12d8f41aaea8f	-0.13420286852290927
21	0xbfc2b6adc7e77993	-0.14619991551348885
22	0x3fa1149a7fb5e70d	0.033360317315738276
23	0x3fc4cb49489754dd	0.16245380444039528
24	0xbfc403a7edc06b5b	-0.15636157139746384
25	0x3fc2e98bd93eb616	0.14775226695694305
26	0xbfc143404ab97644	-0.13486484192519488
27	0x3fbb4887b2c96eb3	0.10657547106660097
28	0xbf705c66b7ce7ab1	-0.003994370691457292
29	0x3f487e46246e0607	0.0007474749080388928
30	0x3fb42d0b8df9e426	0.07881233421530051
31	0x3fc41db0ea33f80e	0.15715609965985816

last_layers.energy.layers.6.bias f8 [1]
0	0xbfae0cd481527bfc	-0.05869163588180723
